…
#---------------------------------------------------------------------------------------------------------------------------------------------------------------------------------------------------------------------


timm-mobilenetv3_small_075

==============================================================================================================
Layer (type:depth-idx)                                       Output Shape              Param #
==============================================================================================================
SwinUnet                                                     [16, 2, 512, 512]         --
├─SwinTransformerSys: 1-1                                    [16, 2, 512, 512]         7,304,416
│    └─MobileNetV3Encoder: 2-1                               [16, 3, 512, 512]         --
│    │    └─MobileNetV3Features: 3-1                         --                        573,480
│    └─PatchEmbed: 2-2                                       [16, 16384, 96]           --
│    │    └─Conv2d: 3-2                                      [16, 96, 128, 128]        4,704
│    │    └─LayerNorm: 3-3                                   [16, 16384, 96]           192
│    └─Dropout: 2-3                                          [16, 16384, 96]           --
│    └─ModuleList: 2-4                                       --                        --
│    │    └─BasicLayer: 3-4                                  [16, 4096, 192]           303,942
│    │    └─BasicLayer: 3-5                                  [16, 1024, 384]           1,197,708
│    │    └─BasicLayer: 3-6                                  [16, 256, 768]            4,754,712
│    │    └─BasicLayer: 3-7                                  [16, 256, 768]            14,221,872
│    └─LayerNorm: 2-5                                        [16, 256, 768]            1,536
│    └─ModuleList: 2-6                                       --                        --
│    │    └─SCF_block: 3-8                                   [16, 256, 16, 16]         6,464,911
│    │    └─SCF_block: 3-9                                   [16, 128, 32, 32]         1,556,828
│    │    └─SCF_block: 3-10                                  [16, 64, 64, 64]          391,429
│    │    └─SCF_block: 3-11                                  [16, 32, 128, 128]        99,075
│    └─UnetDecoder: 2-7                                      [16, 32, 256, 256]        --
│    │    └─ModuleList: 3-12                                 --                        2,149,248
│    └─SegmentationHead: 2-8                                 [16, 2, 512, 512]         --
│    │    └─Conv2d: 3-13                                     [16, 2, 256, 256]         578
│    │    └─UpsamplingBilinear2d: 3-14                       [16, 2, 512, 512]         --
│    │    └─Activation: 3-15                                 [16, 2, 512, 512]         --
==============================================================================================================
Total params: 39,024,631
Trainable params: 39,024,631
Non-trainable params: 0
Total mult-adds (G): 151.14
==============================================================================================================
Input size (MB): 50.33
Forward/backward pass size (MB): 14877.24
Params size (MB): 101.44
…
epoch4.0  _train_loss0.033345334231853485  _val_loss0.06958863139152527 _epoch_acc0.6593349981897821 _val_iou0.27719619022682307

#---------------------------------------------------------------------------------------------------------------------------------------------------

timm-regnetx_002

==============================================================================================================
Layer (type:depth-idx)                                       Output Shape              Param #
==============================================================================================================
SwinUnet                                                     [16, 2, 512, 512]         --
├─SwinTransformerSys: 1-1                                    [16, 2, 512, 512]         7,304,672
│    └─RegNetEncoder: 2-1                                    [16, 3, 512, 512]         --
│    │    └─ConvBnAct: 3-1                                   [16, 32, 256, 256]        928
│    │    └─RegStage: 3-2                                    [16, 24, 128, 128]        4,032
│    │    └─RegStage: 3-3                                    [16, 56, 64, 64]          10,304
│    │    └─RegStage: 3-4                                    [16, 152, 32, 32]         226,480
│    │    └─RegStage: 3-5                                    [16, 368, 16, 16]         2,074,048
│    └─PatchEmbed: 2-2                                       [16, 16384, 96]           --
│    │    └─Conv2d: 3-6                                      [16, 96, 128, 128]        4,704
│    │    └─LayerNorm: 3-7                                   [16, 16384, 96]           192
│    └─Dropout: 2-3                                          [16, 16384, 96]           --
│    └─ModuleList: 2-4                                       --                        --
│    │    └─BasicLayer: 3-8                                  [16, 4096, 192]           303,942
│    │    └─BasicLayer: 3-9                                  [16, 1024, 384]           1,197,708
│    │    └─BasicLayer: 3-10                                 [16, 256, 768]            4,754,712
│    │    └─BasicLayer: 3-11                                 [16, 256, 768]            14,221,872
│    └─LayerNorm: 2-5                                        [16, 256, 768]            1,536
│    └─ModuleList: 2-6                                       --                        --
│    │    └─SCF_block: 3-12                                  [16, 256, 16, 16]         6,417,283
│    │    └─SCF_block: 3-13                                  [16, 128, 32, 32]         1,595,713
│    │    └─SCF_block: 3-14                                  [16, 64, 64, 64]          396,971
│    │    └─SCF_block: 3-15                                  [16, 32, 128, 128]        99,763
│    └─UnetDecoder: 2-7                                      [16, 32, 256, 256]        --
│    │    └─ModuleList: 3-16                                 --                        2,149,248
│    └─SegmentationHead: 2-8                                 [16, 2, 512, 512]         --
│    │    └─Conv2d: 3-17                                     [16, 2, 256, 256]         578
│    │    └─UpsamplingBilinear2d: 3-18                       [16, 2, 512, 512]         --
│    │    └─Activation: 3-19                                 [16, 2, 512, 512]         --
==============================================================================================================
Total params: 40,764,686
Trainable params: 40,764,686
Non-trainable params: 0
Total mult-adds (G): 165.20
==============================================================================================================
Input size (MB): 50.33
Forward/backward pass size (MB): 14633.70
Params size (MB): 108.32
…
epoch4.0  _train_loss0.02762109910448392  _val_loss0.06783460378646851 _epoch_acc0.7386410368653742 _val_iou0.397834231890738

#---------------------------------------------------------------------------------------------------------------------------------------------------

timm-mobilenetv3_small_minimal_100

Summary about the model: 

==============================================================================================================
Layer (type:depth-idx)                                       Output Shape              Param #
==============================================================================================================
SwinUnet                                                     [16, 2, 512, 512]         --
├─SwinTransformerSys: 1-1                                    [16, 2, 512, 512]         7,342,304
│    └─MobileNetV3Encoder: 2-1                               [16, 3, 512, 512]         --
│    │    └─MobileNetV3Features: 3-1                         --                        428,888
│    └─PatchEmbed: 2-2                                       [16, 16384, 96]           --
│    │    └─Conv2d: 3-2                                      [16, 96, 128, 128]        4,704
│    │    └─LayerNorm: 3-3                                   [16, 16384, 96]           192
│    └─Dropout: 2-3                                          [16, 16384, 96]           --
│    └─ModuleList: 2-4                                       --                        --
│    │    └─BasicLayer: 3-4                                  [16, 4096, 192]           303,942
│    │    └─BasicLayer: 3-5                                  [16, 1024, 384]           1,197,708
│    │    └─BasicLayer: 3-6                                  [16, 256, 768]            4,754,712
│    │    └─BasicLayer: 3-7                                  [16, 256, 768]            14,221,872
│    └─LayerNorm: 2-5                                        [16, 256, 768]            1,536
│    └─ModuleList: 2-6                                       --                        --
│    │    └─SCF_block: 3-8                                   [16, 256, 16, 16]         6,575,818
│    │    └─SCF_block: 3-9                                   [16, 128, 32, 32]         1,559,551
│    │    └─SCF_block: 3-10                                  [16, 64, 64, 64]          391,429
│    │    └─SCF_block: 3-11                                  [16, 32, 128, 128]        99,075
│    └─UnetDecoder: 2-7                                      [16, 32, 256, 256]        --
│    │    └─ModuleList: 3-12                                 --                        2,149,248
│    └─SegmentationHead: 2-8                                 [16, 2, 512, 512]         --
│    │    └─Conv2d: 3-13                                     [16, 2, 256, 256]         578
│    │    └─UpsamplingBilinear2d: 3-14                       [16, 2, 512, 512]         --
│    │    └─Activation: 3-15                                 [16, 2, 512, 512]         --
==============================================================================================================
Total params: 39,031,557
Trainable params: 39,031,557
Non-trainable params: 0
Total mult-adds (G): 152.31
==============================================================================================================
Input size (MB): 50.33
Forward/backward pass size (MB): 15036.37
Params size (MB): 101.32
…
['best_val_acc', '0.6741003761999309']
['warm_epoch', 0]
['end_epoch', 5]

#---------------------------------------------------------------------------------------------------------------------------------------------

resnet18

==============================================================================================================
Layer (type:depth-idx)                                       Output Shape              Param #
==============================================================================================================
SwinUnet                                                     [16, 2, 512, 512]         --
├─SwinTransformerSys: 1-1                                    [16, 2, 512, 512]         7,360,736
│    └─ResNetEncoder: 2-1                                    [16, 3, 512, 512]         --
│    │    └─Conv2d: 3-1                                      [16, 64, 256, 256]        9,408
│    │    └─BatchNorm2d: 3-2                                 [16, 64, 256, 256]        128
│    │    └─ReLU: 3-3                                        [16, 64, 256, 256]        --
│    │    └─MaxPool2d: 3-4                                   [16, 64, 128, 128]        --
│    │    └─Sequential: 3-5                                  [16, 64, 128, 128]        147,968
│    │    └─Sequential: 3-6                                  [16, 128, 64, 64]         525,568
│    │    └─Sequential: 3-7                                  [16, 256, 32, 32]         2,099,712
│    │    └─Sequential: 3-8                                  [16, 512, 16, 16]         8,393,728
│    └─PatchEmbed: 2-2                                       [16, 16384, 96]           --
│    │    └─Conv2d: 3-9                                      [16, 96, 128, 128]        4,704
│    │    └─LayerNorm: 3-10                                  [16, 16384, 96]           192
│    └─Dropout: 2-3                                          [16, 16384, 96]           --
│    └─ModuleList: 2-4                                       --                        --
│    │    └─BasicLayer: 3-11                                 [16, 4096, 192]           303,942
│    │    └─BasicLayer: 3-12                                 [16, 1024, 384]           1,197,708
│    │    └─BasicLayer: 3-13                                 [16, 256, 768]            4,754,712
│    │    └─BasicLayer: 3-14                                 [16, 256, 768]            14,221,872
│    └─LayerNorm: 2-5                                        [16, 256, 768]            1,536
│    └─ModuleList: 2-6                                       --                        --
│    │    └─SCF_block: 3-15                                  [16, 256, 16, 16]         6,525,886
│    │    └─SCF_block: 3-16                                  [16, 128, 32, 32]         1,634,886
│    │    └─SCF_block: 3-17                                  [16, 64, 64, 64]          410,506
│    │    └─SCF_block: 3-18                                  [16, 32, 128, 128]        103,596
│    └─UnetDecoder: 2-7                                      [16, 32, 256, 256]        --
│    │    └─ModuleList: 3-19                                 --                        2,149,248
│    └─SegmentationHead: 2-8                                 [16, 2, 512, 512]         --
│    │    └─Conv2d: 3-20                                     [16, 2, 256, 256]         578
│    │    └─UpsamplingBilinear2d: 3-21                       [16, 2, 512, 512]         --
│    │    └─Activation: 3-22                                 [16, 2, 512, 512]         --
==============================================================================================================
Total params: 49,846,614
Trainable params: 49,846,614
Non-trainable params: 0
Total mult-adds (G): 302.74
==============================================================================================================
Input size (MB): 50.33
Forward/backward pass size (MB): 16649.16
Params size (MB): 144.50
…
['best_val_acc', '0.7450088844634593']
['warm_epoch', 0]
['end_epoch', 5]

#---------------------------------------------------------------------------------------------------------------------------------------------

resnet34

==============================================================================================================
Layer (type:depth-idx)                                       Output Shape              Param #
==============================================================================================================
SwinUnet                                                     [16, 2, 512, 512]         --
├─SwinTransformerSys: 1-1                                    [16, 2, 512, 512]         7,360,736
│    └─ResNetEncoder: 2-1                                    [16, 3, 512, 512]         --
│    │    └─Conv2d: 3-1                                      [16, 64, 256, 256]        9,408
│    │    └─BatchNorm2d: 3-2                                 [16, 64, 256, 256]        128
│    │    └─ReLU: 3-3                                        [16, 64, 256, 256]        --
│    │    └─MaxPool2d: 3-4                                   [16, 64, 128, 128]        --
│    │    └─Sequential: 3-5                                  [16, 64, 128, 128]        221,952
│    │    └─Sequential: 3-6                                  [16, 128, 64, 64]         1,116,416
│    │    └─Sequential: 3-7                                  [16, 256, 32, 32]         6,822,400
│    │    └─Sequential: 3-8                                  [16, 512, 16, 16]         13,114,368
│    └─PatchEmbed: 2-2                                       [16, 16384, 96]           --
│    │    └─Conv2d: 3-9                                      [16, 96, 128, 128]        4,704
│    │    └─LayerNorm: 3-10                                  [16, 16384, 96]           192
│    └─Dropout: 2-3                                          [16, 16384, 96]           --
│    └─ModuleList: 2-4                                       --                        --
│    │    └─BasicLayer: 3-11                                 [16, 4096, 192]           303,942
│    │    └─BasicLayer: 3-12                                 [16, 1024, 384]           1,197,708
│    │    └─BasicLayer: 3-13                                 [16, 256, 768]            4,754,712
│    │    └─BasicLayer: 3-14                                 [16, 256, 768]            14,221,872
│    └─LayerNorm: 2-5                                        [16, 256, 768]            1,536
│    └─ModuleList: 2-6                                       --                        --
│    │    └─SCF_block: 3-15                                  [16, 256, 16, 16]         6,525,886
│    │    └─SCF_block: 3-16                                  [16, 128, 32, 32]         1,634,886
│    │    └─SCF_block: 3-17                                  [16, 64, 64, 64]          410,506
│    │    └─SCF_block: 3-18                                  [16, 32, 128, 128]        103,596
│    └─UnetDecoder: 2-7                                      [16, 32, 256, 256]        --
│    │    └─ModuleList: 3-19                                 --                        2,149,248
│    └─SegmentationHead: 2-8                                 [16, 2, 512, 512]         --
│    │    └─Conv2d: 3-20                                     [16, 2, 256, 256]         578
│    │    └─UpsamplingBilinear2d: 3-21                       [16, 2, 512, 512]         --
│    │    └─Activation: 3-22                                 [16, 2, 512, 512]         --
==============================================================================================================
Total params: 59,954,774
Trainable params: 59,954,774
Non-trainable params: 0
Total mult-adds (G): 457.36
==============================================================================================================
Input size (MB): 50.33
Forward/backward pass size (MB): 18326.88
Params size (MB): 184.94
…
['best_val_acc', '0.7412366615608335']
['warm_epoch', 0]
['end_epoch', 5]

#---------------------------------------------------------------------------------------------------------------------------------------------

resnet50

==============================================================================================================
Layer (type:depth-idx)                                       Output Shape              Param #
==============================================================================================================
SwinUnet                                                     [16, 2, 512, 512]         --
├─SwinTransformerSys: 1-1                                    [16, 2, 512, 512]         7,882,976
│    └─ResNetEncoder: 2-1                                    [16, 3, 512, 512]         --
│    │    └─Conv2d: 3-1                                      [16, 64, 256, 256]        9,408
│    │    └─BatchNorm2d: 3-2                                 [16, 64, 256, 256]        128
│    │    └─ReLU: 3-3                                        [16, 64, 256, 256]        --
│    │    └─MaxPool2d: 3-4                                   [16, 64, 128, 128]        --
│    │    └─Sequential: 3-5                                  [16, 256, 128, 128]       215,808
│    │    └─Sequential: 3-6                                  [16, 512, 64, 64]         1,219,584
│    │    └─Sequential: 3-7                                  [16, 1024, 32, 32]        7,098,368
│    │    └─Sequential: 3-8                                  [16, 2048, 16, 16]        14,964,736
│    └─PatchEmbed: 2-2                                       [16, 16384, 96]           --
│    │    └─Conv2d: 3-9                                      [16, 96, 128, 128]        4,704
│    │    └─LayerNorm: 3-10                                  [16, 16384, 96]           192
│    └─Dropout: 2-3                                          [16, 16384, 96]           --
│    └─ModuleList: 2-4                                       --                        --
│    │    └─BasicLayer: 3-11                                 [16, 4096, 192]           303,942
│    │    └─BasicLayer: 3-12                                 [16, 1024, 384]           1,197,708
│    │    └─BasicLayer: 3-13                                 [16, 256, 768]            4,754,712
│    │    └─BasicLayer: 3-14                                 [16, 256, 768]            14,221,872
│    └─LayerNorm: 2-5                                        [16, 256, 768]            1,536
│    └─ModuleList: 2-6                                       --                        --
│    │    └─SCF_block: 3-15                                  [16, 256, 16, 16]         8,006,878
│    │    └─SCF_block: 3-16                                  [16, 128, 32, 32]         2,006,742
│    │    └─SCF_block: 3-17                                  [16, 64, 64, 64]          504,274
│    │    └─SCF_block: 3-18                                  [16, 32, 128, 128]        127,440
│    └─UnetDecoder: 2-7                                      [16, 32, 256, 256]        --
│    │    └─ModuleList: 3-19                                 --                        2,149,248
│    └─SegmentationHead: 2-8                                 [16, 2, 512, 512]         --
│    │    └─Conv2d: 3-20                                     [16, 2, 256, 256]         578
│    │    └─UpsamplingBilinear2d: 3-21                       [16, 2, 512, 512]         --
│    │    └─Activation: 3-22                                 [16, 2, 512, 512]         --
==============================================================================================================
Total params: 64,670,834
Trainable params: 64,670,834
Non-trainable params: 0
Total mult-adds (G): 509.11
==============================================================================================================
Input size (MB): 50.33
Forward/backward pass size (MB): 28947.64
Params size (MB): 201.71
…
['best_val_acc', '0.7985184229910374'] #notevole
['warm_epoch', 0]
['end_epoch', 5]

#---------------------------------------------------------------------------------------------------------------------------------------------

efficientnet-b0

==============================================================================================================
Layer (type:depth-idx)                                       Output Shape              Param #
==============================================================================================================
SwinUnet                                                     [16, 2, 512, 512]         --
├─SwinTransformerSys: 1-1                                    [16, 2, 512, 512]         7,286,240
│    └─EfficientNetEncoder: 2-1                              [16, 3, 512, 512]         412,160
│    │    └─Conv2dStaticSamePadding: 3-1                     [16, 32, 256, 256]        864
│    │    └─BatchNorm2d: 3-2                                 [16, 32, 256, 256]        64
│    │    └─MemoryEfficientSwish: 3-3                        [16, 32, 256, 256]        --
│    │    └─ModuleList: 3-4                                  --                        3,594,460
│    └─PatchEmbed: 2-2                                       [16, 16384, 96]           --
│    │    └─Conv2d: 3-5                                      [16, 96, 128, 128]        4,704
│    │    └─LayerNorm: 3-6                                   [16, 16384, 96]           192
│    └─Dropout: 2-3                                          [16, 16384, 96]           --
│    └─ModuleList: 2-4                                       --                        --
│    │    └─BasicLayer: 3-7                                  [16, 4096, 192]           303,942
│    │    └─BasicLayer: 3-8                                  [16, 1024, 384]           1,197,708
│    │    └─BasicLayer: 3-9                                  [16, 256, 768]            4,754,712
│    │    └─BasicLayer: 3-10                                 [16, 256, 768]            14,221,872
│    └─LayerNorm: 2-5                                        [16, 256, 768]            1,536
│    └─ModuleList: 2-6                                       --                        --
│    │    └─SCF_block: 3-11                                  [16, 256, 16, 16]         6,382,234
│    │    └─SCF_block: 3-12                                  [16, 128, 32, 32]         1,581,579
│    │    └─SCF_block: 3-13                                  [16, 64, 64, 64]          394,168
│    │    └─SCF_block: 3-14                                  [16, 32, 128, 128]        99,763
│    └─UnetDecoder: 2-7                                      [16, 32, 256, 256]        --
│    │    └─ModuleList: 3-15                                 --                        2,149,248
│    └─SegmentationHead: 2-8                                 [16, 2, 512, 512]         --
│    │    └─Conv2d: 3-16                                     [16, 2, 256, 256]         578
│    │    └─UpsamplingBilinear2d: 3-17                       [16, 2, 512, 512]         --
│    │    └─Activation: 3-18                                 [16, 2, 512, 512]         --
==============================================================================================================
Total params: 42,386,024
Trainable params: 42,386,024
Non-trainable params: 0
Total mult-adds (G): 148.08
==============================================================================================================
Input size (MB): 50.33
Forward/backward pass size (MB): 17635.74
Params size (MB): 99.09
…
['best_val_acc', '0.6640832559205592']
['warm_epoch', 0]
['end_epoch', 5]

#---------------------------------------------------------------------------------------------------------------------------------------------

efficientnet-b4

==============================================================================================================
Layer (type:depth-idx)                                       Output Shape              Param #
==============================================================================================================
SwinUnet                                                     [16, 2, 512, 512]         --
├─SwinTransformerSys: 1-1                                    [16, 2, 512, 512]         7,326,432
│    └─EfficientNetEncoder: 2-1                              [16, 3, 512, 512]         806,400
│    │    └─Conv2dStaticSamePadding: 3-1                     [16, 48, 256, 256]        1,296
│    │    └─BatchNorm2d: 3-2                                 [16, 48, 256, 256]        96
│    │    └─MemoryEfficientSwish: 3-3                        [16, 48, 256, 256]        --
│    │    └─ModuleList: 3-4                                  --                        16,740,824
│    └─PatchEmbed: 2-2                                       [16, 16384, 96]           --
│    │    └─Conv2d: 3-5                                      [16, 96, 128, 128]        4,704
│    │    └─LayerNorm: 3-6                                   [16, 16384, 96]           192
│    └─Dropout: 2-3                                          [16, 16384, 96]           --
│    └─ModuleList: 2-4                                       --                        --
│    │    └─BasicLayer: 3-7                                  [16, 4096, 192]           303,942
│    │    └─BasicLayer: 3-8                                  [16, 1024, 384]           1,197,708
│    │    └─BasicLayer: 3-9                                  [16, 256, 768]            4,754,712
│    │    └─BasicLayer: 3-10                                 [16, 256, 768]            14,221,872
│    └─LayerNorm: 2-5                                        [16, 256, 768]            1,536
│    └─ModuleList: 2-6                                       --                        --
│    │    └─SCF_block: 3-11                                  [16, 256, 16, 16]         6,476,978
│    │    └─SCF_block: 3-12                                  [16, 128, 32, 32]         1,598,772
│    │    └─SCF_block: 3-13                                  [16, 64, 64, 64]          396,971
│    │    └─SCF_block: 3-14                                  [16, 32, 128, 128]        100,518
│    └─UnetDecoder: 2-7                                      [16, 32, 256, 256]        --
│    │    └─ModuleList: 3-15                                 --                        2,149,248
│    └─SegmentationHead: 2-8                                 [16, 2, 512, 512]         --
│    │    └─Conv2d: 3-16                                     [16, 2, 256, 256]         578
│    │    └─UpsamplingBilinear2d: 3-17                       [16, 2, 512, 512]         --
│    │    └─Activation: 3-18                                 [16, 2, 512, 512]         --
==============================================================================================================
Total params: 56,082,779
Trainable params: 56,082,779
Non-trainable params: 0
Total mult-adds (G): 149.02
==============================================================================================================
Input size (MB): 50.33
Forward/backward pass size (MB): 24528.09
Params size (MB): 99.88
…
